…
ckpt['g_optimizer'])\nexcept:\n    print(' [*] No checkpoint!')\n    start_epoch = 0\n#%%\nz_sample = Variable(torch.randn(100, z_dim)).cuda()\n","metadata":{"_uuid":"895e2abccb99f8e093d5af1eaa7a07f70558d2f7","execution":{"iopub.status.busy":"2024-07-18T10:20:49.663823Z","iopub.execute_input":"2024-07-18T10:20:49.664054Z","iopub.status.idle":"2024-07-18T10:21:41.621715Z","shell.execute_reply.started":"2024-07-18T10:20:49.664013Z","shell.execute_reply":"2024-07-18T10:21:41.620986Z"},"trusted":true},"execution_count":5,"outputs":[{"name":"stdout","text":"critic(\n  (analyze): Sequential(\n    (0): Conv2d(3, 64, kernel_size=(5, 5), stride=(2, 2), padding=(2, 2))\n    (1): LeakyReLU(negative_slope=0.2)\n    (2): Sequential(\n      (0): Conv2d(64, 128, kernel_size=(5, 5), stride=(2, 2), padding=(2, 2))\n      (1): InstanceNorm2d(128, eps=1e-05, momentum=0.1, affine=True, track_running_stats=False)\n      (2): LeakyReLU(negative_slope=0.2)\n    )\n    (3): Sequential(\n      (0): Conv2d(128, 256, kernel_size=(5, 5), stride=(2, 2), padding=(2, 2))\n      (1): InstanceNorm2d(256, eps=1e-05, momentum=0.1, affine=True, track_running_stats=False)\n      (2): LeakyReLU(negative_slope=0.2)\n    )\n    (4): Sequential(\n      (0): Conv2d(256, 512, kernel_size=(5, 5), stride=(2, 2), padding=(2, 2))\n      (1): InstanceNorm2d(512, eps=1e-05, momentum=0.1, affine=True, track_running_stats=False)\n      (2): LeakyReLU(negative_slope=0.2)\n    )\n    (5): Conv2d(512, 1, kernel_size=(4, 4), stride=(1, 1))\n  )\n)\ngenerator(\n  (prepare): Sequential(\n    (0): Linear(in_features=100, out_features=8192, bias=False)\n    (1): BatchNorm1d(8192, eps=1e-05, momentum=0.1, affine=True, track_running_stats=True)\n    (2): ReLU()\n  )\n  (generate): Sequential(\n    (0): Sequential(\n      (0): ConvTranspose2d(512, 256, kernel_size=(5, 5), stride=(2, 2), padding=(2, 2), output_padding=(1, 1), bias=False)\n      (1): BatchNorm2d(256, eps=1e-05, momentum=0.1, affine=True, track_running_stats=True)\n      (2): ReLU()\n    )\n    (1): Sequential(\n      (0): ConvTranspose2d(256, 128, kernel_size=(5, 5), stride=(2, 2), padding=(2, 2), output_padding=(1, 1), bias=False)\n      (1): BatchNorm2d(128, eps=1e-05, momentum=0.1, affine=True, track_running_stats=True)\n      (2): ReLU()\n    )\n    (2): Sequential(\n      (0): ConvTranspose2d(128, 64, kernel_size=(5, 5), stride=(2, 2), padding=(2, 2), output_padding=(1, 1), bias=False)\n      (1): BatchNorm2d(64, eps=1e-05, momentum=0.1, affine=True, track_running_stats=True)\n      (2): ReLU()\n    )\n    (3): Sequential(\n      (0): ConvTranspose2d(64, 3, kernel_size=(5, 5), stride=(2, 2), padding=(2, 2), output_padding=(1, 1))\n      (1): Tanh()\n    )\n  )\n)\nGenerator : \ngenerator(\n  (prepare): Sequential(\n    (0): Linear(in_features=100, out_features=8192, bias=False)\n    (1): BatchNorm1d(8192, eps=1e-05, momentum=0.1, affine=True, track_running_stats=True)\n    (2): ReLU()\n  )\n  (generate): Sequential(\n    (0): Sequential(\n      (0): ConvTranspose2d(512, 256, kernel_size=(5, 5), stride=(2, 2), padding=(2, 2), output_padding=(1, 1), bias=False)\n      (1): BatchNorm2d(256, eps=1e-05, momentum=0.1, affine=True, track_running_stats=True)\n      (2): ReLU()\n    )\n    (1): Sequential(\n      (0): ConvTranspose2d(256, 128, kernel_size=(5, 5), stride=(2, 2), padding=(2, 2), output_padding=(1, 1), bias=False)\n      (1): BatchNorm2d(128, eps=1e-05, momentum=0.1, affine=True, track_running_stats=True)\n      (2): ReLU()\n    )\n    (2): Sequential(\n      (0): ConvTranspose2d(128, 64, kernel_size=(5, 5), stride=(2, 2), padding=(2, 2), output_padding=(1, 1), bias=False)\n      (1): BatchNorm2d(64, eps=1e-05, momentum=0.1, affine=True, track_running_stats=True)\n      (2): ReLU()\n    )\n    (3): Sequential(\n      (0): ConvTranspose2d(64, 3, kernel_size=(5, 5), stride=(2, 2), padding=(2, 2), output_padding=(1, 1))\n      (1): Tanh()\n    )\n  )\n)\nCritic\ncritic(\n  (analyze): Sequential(\n    (0): Conv2d(3, 64, kernel_size=(5, 5), stride=(2, 2), padding=(2, 2))\n    (1): LeakyReLU(negative_slope=0.2)\n    (2): Sequential(\n      (0): Conv2d(64, 128, kernel_size=(5, 5), stride=(2, 2), padding=(2, 2))\n      (1): InstanceNorm2d(128, eps=1e-05, momentum=0.1, affine=True, track_running_stats=False)\n      (2): LeakyReLU(negative_slope=0.2)\n    )\n    (3): Sequential(\n      (0): Conv2d(128, 256, kernel_size=(5, 5), stride=(2, 2), padding=(2, 2))\n      (1): InstanceNorm2d(256, eps=1e-05, momentum=0.1, affine=True, track_running_stats=False)\n      (2): LeakyReLU(negative_slope=0.2)\n    )\n    (4): Sequential(\n      (0): Conv2d(256, 512, kernel_size=(5, 5), stride=(2, 2), padding=(2, 2))\n      (1): InstanceNorm2d(512, eps=1e-05, momentum=0.1, affine=True, track_running_stats=False)\n      (2): LeakyReLU(negative_slope=0.2)\n    )\n    (5): Conv2d(512, 1, kernel_size=(4, 4), stride=(1, 1))\n  )\n)\n [*] No checkpoint!\n","output_type":"stream"}]},{"cell_type":"code","source":"G()","metadata":{"execution":{"iopub.status.busy":"2024-07-18T12:14:57.062630Z","iopub.execute_input":"2024-07-18T12:14:57.062951Z","iopub.status.idle":"2024-07-18T12:14:57.068728Z","shell.execute_reply.started":"2024-07-18T12:14:57.062910Z","shell.execute_reply":"2024-07-18T12:14:57.068034Z"},"trusted":true},"execution_count":9,"outputs":[{"execution_count":9,"output_type":"execute_result","data":{"text/plain":"generator(\n  (prepare): Sequential(\n    (0): Linear(in_features=100, out_features=8192, bias=False)\n    (1): BatchNorm1d(8192, eps=1e-05, momentum=0.1, affine=True, track_running_stats=True)\n    (2): ReLU()\n  )\n  (generate): Sequential(\n    (0): Sequential(\n      (0): ConvTranspose2d(512, 256, kernel_size=(5, 5), stride=(2, 2), padding=(2, 2), output_padding=(1, 1), bias=False)\n      (1): BatchNorm2d(256, eps=1e-05, momentum=0.1, affine=True, track_running_stats=True)\n      (2): ReLU()\n    )\n    (1): Sequential(\n      (0): ConvTranspose2d(256, 128, kernel_size=(5, 5), stride=(2, 2), padding=(2, 2), output_padding=(1, 1), bias=False)\n      (1): BatchNorm2d(128, eps=1e-05, momentum=0.1, affine=True, track_running_stats=True)\n      (2): ReLU()\n    )\n    (2): Sequential(\n      (0): ConvTranspose2d(128, 64, kernel_size=(5, 5), stride=(2, 2), padding=(2, 2), output_padding=(1, 1), bias=False)\n      (1): BatchNorm2d(64, eps=1e-05, momentum=0.1, affine=True, track_running_stats=True)\n      (2): ReLU()\n    )\n    (3): Sequential(\n      (0): ConvTranspose2d(64, 3, kernel_size=(5, 5), stride=(2, 2), padding=(2, 2), output_padding=(1, 1))\n      (1): Tanh()\n    )\n  )\n)"},"metadata":{}}]},{"cell_type":"code","source":"import time\nfor epoch in range(start_epoch, epochs):\n    start_time = time.time()\n    C_loss= []\n    G_loss=[]\n    G.train()\n    for i, (images, _) in enumerate(dataloader):\n        step = epoch * len(dataloader) + i + 1\n\n     
…
